{"class_name": "Functional", "config": {"name": "functional_15", "layers": [{"class_name": "InputLayer", "config": {"batch_input_shape": [1, 1, 150, 280, 3], "dtype": "float32", "sparse": false, "ragged": false, "name": "main_in"}, "name": "main_in", "inbound_nodes": []}, {"class_name": "TimeDistributed", "config": {"name": "time_distributed_6", "trainable": true, "dtype": "float32", "layer": {"class_name": "Functional", "config": {"name": "functional_13", "layers": [{"class_name": "InputLayer", "config": {"batch_input_shape": [null, 150, 280, 3], "dtype": "float32", "sparse": false, "ragged": false, "name": "input_4"}, "name": "input_4", "inbound_nodes": []}, {"class_name": "Rescaling", "config": {"name": "rescaling_3", "trainable": true, "dtype": "float32", "scale": 0.00392156862745098, "offset": 0.0}, "name": "rescaling_3", "inbound_nodes": [[["input_4", 0, 0, {}]]]}, {"class_name": "Normalization", "config": {"name": "normalization_3", "trainable": true, "dtype": "float32", "axis": [3]}, "name": "normalization_3", "inbound_nodes": [[["rescaling_3", 0, 0, {}]]]}, {"class_name": "ZeroPadding2D", "config": {"name": "stem_conv_pad", "trainable": true, "dtype": "float32", "padding": [[0, 1], [0, 1]], "data_format": "channels_last"}, "name": "stem_conv_pad", "inbound_nodes": [[["normalization_3", 0, 0, {}]]]}, {"class_name": "Conv2D", "config": {"name": "stem_conv", "trainable": true, "dtype": "float32", "filters": 32, "kernel_size": [3, 3], "strides": [2, 2], "padding": "valid", "data_format": "channels_last", "dilation_rate": [1, 1], "groups": 1, "activation": "linear", "use_bias": false, "kernel_initializer": {"class_name": "VarianceScaling", "config": {"scale": 2.0, "mode": "fan_out", "distribution": "truncated_normal", "seed": null}}, "bias_initializer": {"class_name": "Zeros", "config": {}}, "kernel_regularizer": null, "bias_regularizer": null, "activity_regularizer": null, "kernel_constraint": null, "bias_constraint": null}, "name": "stem_conv", "inbound_nodes": [[["stem_conv_pad", 0, 0, {}]]]}, {"class_name": "BatchNormalization", "config": {"name": "stem_bn", "trainable": true, "dtype": "float32", "axis": [3], "momentum": 0.99, "epsilon": 0.001, "center": true, "scale": true, "beta_initializer": {"class_name": "Zeros", "config": {}}, "gamma_initializer": {"class_name": "Ones", "config": {}}, "moving_mean_initializer": {"class_name": "Zeros", "config": {}}, "moving_variance_initializer": {"class_name": "Ones", "config": {}}, "beta_regularizer": null, "gamma_regularizer": null, "beta_constraint": null, "gamma_constraint": null}, "name": "stem_bn", "inbound_nodes": [[["stem_conv", 0, 0, {}]]]}, {"class_name": "Activation", "config": {"name": "stem_activation", "trainable": true, "dtype": "float32", "activation": "swish"}, "name": "stem_activation", "inbound_nodes": [[["stem_bn", 0, 0, {}]]]}, {"class_name": "DepthwiseConv2D", "config": {"name": "block1a_dwconv", "trainable": true, "dtype": "float32", "kernel_size": [3, 3], "strides": [1, 1], "padding": "same", "data_format": "channels_last", "dilation_rate": [1, 1], "groups": 1, "activation": "linear", "use_bias": false, "bias_initializer": {"class_name": "Zeros", "config": {}}, "bias_regularizer": null, "activity_regularizer": null, "bias_constraint": null, "depth_multiplier": 1, "depthwise_initializer": {"class_name": "VarianceScaling", "config": {"scale": 2.0, "mode": "fan_out", "distribution": "truncated_normal", "seed": null}}, "depthwise_regularizer": null, "depthwise_constraint": null}, "name": "block1a_dwconv", "inbound_nodes": [[["stem_activation", 0, 0, {}]]]}, {"class_name": "BatchNormalization", "config": {"name": "block1a_bn", "trainable": true, "dtype": "float32", "axis": [3], "momentum": 0.99, "epsilon": 0.001, "center": true, "scale": true, "beta_initializer": {"class_name": "Zeros", "config": {}}, "gamma_initializer": {"class_name": "Ones", "config": {}}, "moving_mean_initializer": {"class_name": "Zeros", "config": {}}, "moving_variance_initializer": {"class_name": "Ones", "config": {}}, "beta_regularizer": null, "gamma_regularizer": null, "beta_constraint": null, "gamma_constraint": null}, "name": "block1a_bn", "inbound_nodes": [[["block1a_dwconv", 0, 0, {}]]]}, {"class_name": "Activation", "config": {"name": "block1a_activation", "trainable": true, "dtype": "float32", "activation": "swish"}, "name": "block1a_activation", "inbound_nodes": [[["block1a_bn", 0, 0, {}]]]}, {"class_name": "GlobalAveragePooling2D", "config": {"name": "block1a_se_squeeze", "trainable": true, "dtype": "float32", "data_format": "channels_last"}, "name": "block1a_se_squeeze", "inbound_nodes": [[["block1a_activation", 0, 0, {}]]]}, {"class_name": "Reshape", "config": {"name": "block1a_se_reshape", "trainable": true, "dtype": "float32", "target_shape": [1, 1, 32]}, "name": "block1a_se_reshape", "inbound_nodes": [[["block1a_se_squeeze", 0, 0, {}]]]}, {"class_name": "Conv2D", "config": {"name": "block1a_se_reduce", "trainable": true, "dtype": "float32", "filters": 8, "kernel_size": [1, 1], "strides": [1, 1], "padding": "same", "data_format": "channels_last", "dilation_rate": [1, 1], "groups": 1, "activation": "swish", "use_bias": true, "kernel_initializer": {"class_name": "VarianceScaling", "config": {"scale": 2.0, "mode": "fan_out", "distribution": "truncated_normal", "seed": null}}, "bias_initializer": {"class_name": "Zeros", "config": {}}, "kernel_regularizer": null, "bias_regularizer": null, "activity_regularizer": null, "kernel_constraint": null, "bias_constraint": null}, "name": "block1a_se_reduce", "inbound_nodes": [[["block1a_se_reshape", 0, 0, {}]]]}, {"class_name": "Conv2D", "config": {"name": "block1a_se_expand", "trainable": true, "dtype": "float32", "filters": 32, "kernel_size": [1, 1], "strides": [1, 1], "padding": "same", "data_format": "channels_last", "dilation_rate": [1, 1], "groups": 1, "activation": "sigmoid", "use_bias": true, "kernel_initializer": {"class_name": "VarianceScaling", "config": {"scale": 2.0, "mode": "fan_out", "distribution": "truncated_normal", "seed": null}}, "bias_initializer": {"class_name": "Zeros", "config": {}}, "kernel_regularizer": null, "bias_regularizer": null, "activity_regularizer": null, "kernel_constraint": null, "bias_constraint": null}, "name": "block1a_se_expand", "inbound_nodes": [[["block1a_se_reduce", 0, 0, {}]]]}, {"class_name": "Multiply", "config": {"name": "block1a_se_excite", "trainable": true, "dtype": "float32"}, "name": "block1a_se_excite", "inbound_nodes": [[["block1a_activation", 0, 0, {}], ["block1a_se_expand", 0, 0, {}]]]}, {"class_name": "Conv2D", "config": {"name": "block1a_project_conv", "trainable": true, "dtype": "float32", "filters": 16, "kernel_size": [1, 1], "strides": [1, 1], "padding": "same", "data_format": "channels_last", "dilation_rate": [1, 1], "groups": 1, "activation": "linear", "use_bias": false, "kernel_initializer": {"class_name": "VarianceScaling", "config": {"scale": 2.0, "mode": "fan_out", "distribution": "truncated_normal", "seed": null}}, "bias_initializer": {"class_name": "Zeros", "config": {}}, "kernel_regularizer": null, "bias_regularizer": null, "activity_regularizer": null, "kernel_constraint": null, "bias_constraint": null}, "name": "block1a_project_conv", "inbound_nodes": [[["block1a_se_excite", 0, 0, {}]]]}, {"class_name": "BatchNormalization", "config": {"name": "block1a_project_bn", "trainable": true, "dtype": "float32", "axis": [3], "momentum": 0.99, "epsilon": 0.001, "center": true, "scale": true, "beta_initializer": {"class_name": "Zeros", "config": {}}, "gamma_initializer": {"class_name": "Ones", "config": {}}, "moving_mean_initializer": {"class_name": "Zeros", "config": {}}, "moving_variance_initializer": {"class_name": "Ones", "config": {}}, "beta_regularizer": null, "gamma_regularizer": null, "beta_constraint": null, "gamma_constraint": null}, "name": "block1a_project_bn", "inbound_nodes": [[["block1a_project_conv", 0, 0, {}]]]}, {"class_name": "Conv2D", "config": {"name": "block2a_expand_conv", "trainable": true, "dtype": "float32", "filters": 96, "kernel_size": [1, 1], "strides": [1, 1], "padding": "same", "data_format": "channels_last", "dilation_rate": [1, 1], "groups": 1, "activation": "linear", "use_bias": false, "kernel_initializer": {"class_name": "VarianceScaling", "config": {"scale": 2.0, "mode": "fan_out", "distribution": "truncated_normal", "seed": null}}, "bias_initializer": {"class_name": "Zeros", "config": {}}, "kernel_regularizer": null, "bias_regularizer": null, "activity_regularizer": null, "kernel_constraint": null, "bias_constraint": null}, "name": "block2a_expand_conv", "inbound_nodes": [[["block1a_project_bn", 0, 0, {}]]]}, {"class_name": "BatchNormalization", "config": {"name": "block2a_expand_bn", "trainable": true, "dtype": "float32", "axis": [3], "momentum": 0.99, "epsilon": 0.001, "center": true, "scale": true, "beta_initializer": {"class_name": "Zeros", "config": {}}, "gamma_initializer": {"class_name": "Ones", "config": {}}, "moving_mean_initializer": {"class_name": "Zeros", "config": {}}, "moving_variance_initializer": {"class_name": "Ones", "config": {}}, "beta_regularizer": null, "gamma_regularizer": null, "beta_constraint": null, "gamma_constraint": null}, "name": "block2a_expand_bn", "inbound_nodes": [[["block2a_expand_conv", 0, 0, {}]]]}, {"class_name": "Activation", "config": {"name": "block2a_expand_activation", "trainable": true, "dtype": "float32", "activation": "swish"}, "name": "block2a_expand_activation", "inbound_nodes": [[["block2a_expand_bn", 0, 0, {}]]]}, {"class_name": "ZeroPadding2D", "config": {"name": "block2a_dwconv_pad", "trainable": true, "dtype": "float32", "padding": [[1, 1], [0, 1]], "data_format": "channels_last"}, "name": "block2a_dwconv_pad", "inbound_nodes": [[["block2a_expand_activation", 0, 0, {}]]]}, {"class_name": "DepthwiseConv2D", "config": {"name": "block2a_dwconv", "trainable": true, "dtype": "float32", "kernel_size": [3, 3], "strides": [2, 2], "padding": "valid", "data_format": "channels_last", "dilation_rate": [1, 1], "groups": 1, "activation": "linear", "use_bias": false, "bias_initializer": {"class_name": "Zeros", "config": {}}, "bias_regularizer": null, "activity_regularizer": null, "bias_constraint": null, "depth_multiplier": 1, "depthwise_initializer": {"class_name": "VarianceScaling", "config": {"scale": 2.0, "mode": "fan_out", "distribution": "truncated_normal", "seed": null}}, "depthwise_regularizer": null, "depthwise_constraint": null}, "name": "block2a_dwconv", "inbound_nodes": [[["block2a_dwconv_pad", 0, 0, {}]]]}, {"class_name": "BatchNormalization", "config": {"name": "block2a_bn", "trainable": true, "dtype": "float32", "axis": [3], "momentum": 0.99, "epsilon": 0.001, "center": true, "scale": true, "beta_initializer": {"class_name": "Zeros", "config": {}}, "gamma_initializer": {"class_name": "Ones", "config": {}}, "moving_mean_initializer": {"class_name": "Zeros", "config": {}}, "moving_variance_initializer": {"class_name": "Ones", "config": {}}, "beta_regularizer": null, "gamma_regularizer": null, "beta_constraint": null, "gamma_constraint": null}, "name": "block2a_bn", "inbound_nodes": [[["block2a_dwconv", 0, 0, {}]]]}, {"class_name": "Activation", "config": {"name": "block2a_activation", "trainable": true, "dtype": "float32", "activation": "swish"}, "name": "block2a_activation", "inbound_nodes": [[["block2a_bn", 0, 0, {}]]]}, {"class_name": "GlobalAveragePooling2D", "config": {"name": "block2a_se_squeeze", "trainable": true, "dtype": "float32", "data_format": "channels_last"}, "name": "block2a_se_squeeze", "inbound_nodes": [[["block2a_activation", 0, 0, {}]]]}, {"class_name": "Reshape", "config": {"name": "block2a_se_reshape", "trainable": true, "dtype": "float32", "target_shape": [1, 1, 96]}, "name": "block2a_se_reshape", "inbound_nodes": [[["block2a_se_squeeze", 0, 0, {}]]]}, {"class_name": "Conv2D", "config": {"name": "block2a_se_reduce", "trainable": true, "dtype": "float32", "filters": 4, "kernel_size": [1, 1], "strides": [1, 1], "padding": "same", "data_format": "channels_last", "dilation_rate": [1, 1], "groups": 1, "activation": "swish", "use_bias": true, "kernel_initializer": {"class_name": "VarianceScaling", "config": {"scale": 2.0, "mode": "fan_out", "distribution": "truncated_normal", "seed": null}}, "bias_initializer": {"class_name": "Zeros", "config": {}}, "kernel_regularizer": null, "bias_regularizer": null, "activity_regularizer": null, "kernel_constraint": null, "bias_constraint": null}, "name": "block2a_se_reduce", "inbound_nodes": [[["block2a_se_reshape", 0, 0, {}]]]}, {"class_name": "Conv2D", "config": {"name": "block2a_se_expand", "trainable": true, "dtype": "float32", "filters": 96, "kernel_size": [1, 1], "strides": [1, 1], "padding": "same", "data_format": "channels_last", "dilation_rate": [1, 1], "groups": 1, "activation": "sigmoid", "use_bias": true, "kernel_initializer": {"class_name": "VarianceScaling", "config": {"scale": 2.0, "mode": "fan_out", "distribution": "truncated_normal", "seed": null}}, "bias_initializer": {"class_name": "Zeros", "config": {}}, "kernel_regularizer": null, "bias_regularizer": null, "activity_regularizer": null, "kernel_constraint": null, "bias_constraint": null}, "name": "block2a_se_expand", "inbound_nodes": [[["block2a_se_reduce", 0, 0, {}]]]}, {"class_name": "Multiply", "config": {"name": "block2a_se_excite", "trainable": true, "dtype": "float32"}, "name": "block2a_se_excite", "inbound_nodes": [[["block2a_activation", 0, 0, {}], ["block2a_se_expand", 0, 0, {}]]]}, {"class_name": "Conv2D", "config": {"name": "block2a_project_conv", "trainable": true, "dtype": "float32", "filters": 24, "kernel_size": [1, 1], "strides": [1, 1], "padding": "same", "data_format": "channels_last", "dilation_rate": [1, 1], "groups": 1, "activation": "linear", "use_bias": false, "kernel_initializer": {"class_name": "VarianceScaling", "config": {"scale": 2.0, "mode": "fan_out", "distribution": "truncated_normal", "seed": null}}, "bias_initializer": {"class_name": "Zeros", "config": {}}, "kernel_regularizer": null, "bias_regularizer": null, "activity_regularizer": null, "kernel_constraint": null, "bias_constraint": null}, "name": "block2a_project_conv", "inbound_nodes": [[["block2a_se_excite", 0, 0, {}]]]}, {"class_name": "BatchNormalization", "config": {"name": "block2a_project_bn", "trainable": true, "dtype": "float32", "axis": [3], "momentum": 0.99, "epsilon": 0.001, "center": true, "scale": true, "beta_initializer": {"class_name": "Zeros", "config": {}}, "gamma_initializer": {"class_name": "Ones", "config": {}}, "moving_mean_initializer": {"class_name": "Zeros", "config": {}}, "moving_variance_initializer": {"class_name": "Ones", "config": {}}, "beta_regularizer": null, "gamma_regularizer": null, "beta_constraint": null, "gamma_constraint": null}, "name": "block2a_project_bn", "inbound_nodes": [[["block2a_project_conv", 0, 0, {}]]]}, {"class_name": "Conv2D", "config": {"name": "block2b_expand_conv", "trainable": true, "dtype": "float32", "filters": 144, "kernel_size": [1, 1], "strides": [1, 1], "padding": "same", "data_format": "channels_last", "dilation_rate": [1, 1], "groups": 1, "activation": "linear", "use_bias": false, "kernel_initializer": {"class_name": "VarianceScaling", "config": {"scale": 2.0, "mode": "fan_out", "distribution": "truncated_normal", "seed": null}}, "bias_initializer": {"class_name": "Zeros", "config": {}}, "kernel_regularizer": null, "bias_regularizer": null, "activity_regularizer": null, "kernel_constraint": null, "bias_constraint": null}, "name": "block2b_expand_conv", "inbound_nodes": [[["block2a_project_bn", 0, 0, {}]]]}, {"class_name": "BatchNormalization", "config": {"name": "block2b_expand_bn", "trainable": true, "dtype": "float32", "axis": [3], "momentum": 0.99, "epsilon": 0.001, "center": true, "scale": true, "beta_initializer": {"class_name": "Zeros", "config": {}}, "gamma_initializer": {"class_name": "Ones", "config": {}}, "moving_mean_initializer": {"class_name": "Zeros", "config": {}}, "moving_variance_initializer": {"class_name": "Ones", "config": {}}, "beta_regularizer": null, "gamma_regularizer": null, "beta_constraint": null, "gamma_constraint": null}, "name": "block2b_expand_bn", "inbound_nodes": [[["block2b_expand_conv", 0, 0, {}]]]}, {"class_name": "Activation", "config": {"name": "block2b_expand_activation", "trainable": true, "dtype": "float32", "activation": "swish"}, "name": "block2b_expand_activation", "inbound_nodes": [[["block2b_expand_bn", 0, 0, {}]]]}, {"class_name": "DepthwiseConv2D", "config": {"name": "block2b_dwconv", "trainable": true, "dtype": "float32", "kernel_size": [3, 3], "strides": [1, 1], "padding": "same", "data_format": "channels_last", "dilation_rate": [1, 1], "groups": 1, "activation": "linear", "use_bias": false, "bias_initializer": {"class_name": "Zeros", "config": {}}, "bias_regularizer": null, "activity_regularizer": null, "bias_constraint": null, "depth_multiplier": 1, "depthwise_initializer": {"class_name": "VarianceScaling", "config": {"scale": 2.0, "mode": "fan_out", "distribution": "truncated_normal", "seed": null}}, "depthwise_regularizer": null, "depthwise_constraint": null}, "name": "block2b_dwconv", "inbound_nodes": [[["block2b_expand_activation", 0, 0, {}]]]}, {"class_name": "BatchNormalization", "config": {"name": "block2b_bn", "trainable": true, "dtype": "float32", "axis": [3], "momentum": 0.99, "epsilon": 0.001, "center": true, "scale": true, "beta_initializer": {"class_name": "Zeros", "config": {}}, "gamma_initializer": {"class_name": "Ones", "config": {}}, "moving_mean_initializer": {"class_name": "Zeros", "config": {}}, "moving_variance_initializer": {"class_name": "Ones", "config": {}}, "beta_regularizer": null, "gamma_regularizer": null, "beta_constraint": null, "gamma_constraint": null}, "name": "block2b_bn", "inbound_nodes": [[["block2b_dwconv", 0, 0, {}]]]}, {"class_name": "Activation", "config": {"name": "block2b_activation", "trainable": true, "dtype": "float32", "activation": "swish"}, "name": "block2b_activation", "inbound_nodes": [[["block2b_bn", 0, 0, {}]]]}, {"class_name": "GlobalAveragePooling2D", "config": {"name": "block2b_se_squeeze", "trainable": true, "dtype": "float32", "data_format": "channels_last"}, "name": "block2b_se_squeeze", "inbound_nodes": [[["block2b_activation", 0, 0, {}]]]}, {"class_name": "Reshape", "config": {"name": "block2b_se_reshape", "trainable": true, "dtype": "float32", "target_shape": [1, 1, 144]}, "name": "block2b_se_reshape", "inbound_nodes": [[["block2b_se_squeeze", 0, 0, {}]]]}, {"class_name": "Conv2D", "config": {"name": "block2b_se_reduce", "trainable": true, "dtype": "float32", "filters": 6, "kernel_size": [1, 1], "strides": [1, 1], "padding": "same", "data_format": "channels_last", "dilation_rate": [1, 1], "groups": 1, "activation": "swish", "use_bias": true, "kernel_initializer": {"class_name": "VarianceScaling", "config": {"scale": 2.0, "mode": "fan_out", "distribution": "truncated_normal", "seed": null}}, "bias_initializer": {"class_name": "Zeros", "config": {}}, "kernel_regularizer": null, "bias_regularizer": null, "activity_regularizer": null, "kernel_constraint": null, "bias_constraint": null}, "name": "block2b_se_reduce", "inbound_nodes": [[["block2b_se_reshape", 0, 0, {}]]]}, {"class_name": "Conv2D", "config": {"name": "block2b_se_expand", "trainable": true, "dtype": "float32", "filters": 144, "kernel_size": [1, 1], "strides": [1, 1], "padding": "same", "data_format": "channels_last", "dilation_rate": [1, 1], "groups": 1, "activation": "sigmoid", "use_bias": true, "kernel_initializer": {"class_name": "VarianceScaling", "config": {"scale": 2.0, "mode": "fan_out", "distribution": "truncated_normal", "seed": null}}, "bias_initializer": {"class_name": "Zeros", "config": {}}, "kernel_regularizer": null, "bias_regularizer": null, "activity_regularizer": null, "kernel_constraint": null, "bias_constraint": null}, "name": "block2b_se_expand", "inbound_nodes": [[["block2b_se_reduce", 0, 0, {}]]]}, {"class_name": "Multiply", "config": {"name": "block2b_se_excite", "trainable": true, "dtype": "float32"}, "name": "block2b_se_excite", "inbound_nodes": [[["block2b_activation", 0, 0, {}], ["block2b_se_expand", 0, 0, {}]]]}, {"class_name": "Conv2D", "config": {"name": "block2b_project_conv", "trainable": true, "dtype": "float32", "filters": 24, "kernel_size": [1, 1], "strides": [1, 1], "padding": "same", "data_format": "channels_last", "dilation_rate": [1, 1], "groups": 1, "activation": "linear", "use_bias": false, "kernel_initializer": {"class_name": "VarianceScaling", "config": {"scale": 2.0, "mode": "fan_out", "distribution": "truncated_normal", "seed": null}}, "bias_initializer": {"class_name": "Zeros", "config": {}}, "kernel_regularizer": null, "bias_regularizer": null, "activity_regularizer": null, "kernel_constraint": null, "bias_constraint": null}, "name": "block2b_project_conv", "inbound_nodes": [[["block2b_se_excite", 0, 0, {}]]]}, {"class_name": "BatchNormalization", "config": {"name": "block2b_project_bn", "trainable": true, "dtype": "float32", "axis": [3], "momentum": 0.99, "epsilon": 0.001, "center": true, "scale": true, "beta_initializer": {"class_name": "Zeros", "config": {}}, "gamma_initializer": {"class_name": "Ones", "config": {}}, "moving_mean_initializer": {"class_name": "Zeros", "config": {}}, "moving_variance_initializer": {"class_name": "Ones", "config": {}}, "beta_regularizer": null, "gamma_regularizer": null, "beta_constraint": null, "gamma_constraint": null}, "name": "block2b_project_bn", "inbound_nodes": [[["block2b_project_conv", 0, 0, {}]]]}, {"class_name": "Dropout", "config": {"name": "block2b_drop", "trainable": true, "dtype": "float32", "rate": 0.025, "noise_shape": [null, 1, 1, 1], "seed": null}, "name": "block2b_drop", "inbound_nodes": [[["block2b_project_bn", 0, 0, {}]]]}, {"class_name": "Add", "config": {"name": "block2b_add", "trainable": true, "dtype": "float32"}, "name": "block2b_add", "inbound_nodes": [[["block2b_drop", 0, 0, {}], ["block2a_project_bn", 0, 0, {}]]]}, {"class_name": "Conv2D", "config": {"name": "block3a_expand_conv", "trainable": true, "dtype": "float32", "filters": 144, "kernel_size": [1, 1], "strides": [1, 1], "padding": "same", "data_format": "channels_last", "dilation_rate": [1, 1], "groups": 1, "activation": "linear", "use_bias": false, "kernel_initializer": {"class_name": "VarianceScaling", "config": {"scale": 2.0, "mode": "fan_out", "distribution": "truncated_normal", "seed": null}}, "bias_initializer": {"class_name": "Zeros", "config": {}}, "kernel_regularizer": null, "bias_regularizer": null, "activity_regularizer": null, "kernel_constraint": null, "bias_constraint": null}, "name": "block3a_expand_conv", "inbound_nodes": [[["block2b_add", 0, 0, {}]]]}, {"class_name": "BatchNormalization", "config": {"name": "block3a_expand_bn", "trainable": true, "dtype": "float32", "axis": [3], "momentum": 0.99, "epsilon": 0.001, "center": true, "scale": true, "beta_initializer": {"class_name": "Zeros", "config": {}}, "gamma_initializer": {"class_name": "Ones", "config": {}}, "moving_mean_initializer": {"class_name": "Zeros", "config": {}}, "moving_variance_initializer": {"class_name": "Ones", "config": {}}, "beta_regularizer": null, "gamma_regularizer": null, "beta_constraint": null, "gamma_constraint": null}, "name": "block3a_expand_bn", "inbound_nodes": [[["block3a_expand_conv", 0, 0, {}]]]}, {"class_name": "Activation", "config": {"name": "block3a_expand_activation", "trainable": true, "dtype": "float32", "activation": "swish"}, "name": "block3a_expand_activation", "inbound_nodes": [[["block3a_expand_bn", 0, 0, {}]]]}, {"class_name": "ZeroPadding2D", "config": {"name": "block3a_dwconv_pad", "trainable": true, "dtype": "float32", "padding": [[1, 2], [1, 2]], "data_format": "channels_last"}, "name": "block3a_dwconv_pad", "inbound_nodes": [[["block3a_expand_activation", 0, 0, {}]]]}, {"class_name": "DepthwiseConv2D", "config": {"name": "block3a_dwconv", "trainable": true, "dtype": "float32", "kernel_size": [5, 5], "strides": [2, 2], "padding": "valid", "data_format": "channels_last", "dilation_rate": [1, 1], "groups": 1, "activation": "linear", "use_bias": false, "bias_initializer": {"class_name": "Zeros", "config": {}}, "bias_regularizer": null, "activity_regularizer": null, "bias_constraint": null, "depth_multiplier": 1, "depthwise_initializer": {"class_name": "VarianceScaling", "config": {"scale": 2.0, "mode": "fan_out", "distribution": "truncated_normal", "seed": null}}, "depthwise_regularizer": null, "depthwise_constraint": null}, "name": "block3a_dwconv", "inbound_nodes": [[["block3a_dwconv_pad", 0, 0, {}]]]}, {"class_name": "BatchNormalization", "config": {"name": "block3a_bn", "trainable": true, "dtype": "float32", "axis": [3], "momentum": 0.99, "epsilon": 0.001, "center": true, "scale": true, "beta_initializer": {"class_name": "Zeros", "config": {}}, "gamma_initializer": {"class_name": "Ones", "config": {}}, "moving_mean_initializer": {"class_name": "Zeros", "config": {}}, "moving_variance_initializer": {"class_name": "Ones", "config": {}}, "beta_regularizer": null, "gamma_regularizer": null, "beta_constraint": null, "gamma_constraint": null}, "name": "block3a_bn", "inbound_nodes": [[["block3a_dwconv", 0, 0, {}]]]}, {"class_name": "Activation", "config": {"name": "block3a_activation", "trainable": true, "dtype": "float32", "activation": "swish"}, "name": "block3a_activation", "inbound_nodes": [[["block3a_bn", 0, 0, {}]]]}, {"class_name": "GlobalAveragePooling2D", "config": {"name": "block3a_se_squeeze", "trainable": true, "dtype": "float32", "data_format": "channels_last"}, "name": "block3a_se_squeeze", "inbound_nodes": [[["block3a_activation", 0, 0, {}]]]}, {"class_name": "Reshape", "config": {"name": "block3a_se_reshape", "trainable": true, "dtype": "float32", "target_shape": [1, 1, 144]}, "name": "block3a_se_reshape", "inbound_nodes": [[["block3a_se_squeeze", 0, 0, {}]]]}, {"class_name": "Conv2D", "config": {"name": "block3a_se_reduce", "trainable": true, "dtype": "float32", "filters": 6, "kernel_size": [1, 1], "strides": [1, 1], "padding": "same", "data_format": "channels_last", "dilation_rate": [1, 1], "groups": 1, "activation": "swish", "use_bias": true, "kernel_initializer": {"class_name": "VarianceScaling", "config": {"scale": 2.0, "mode": "fan_out", "distribution": "truncated_normal", "seed": null}}, "bias_initializer": {"class_name": "Zeros", "config": {}}, "kernel_regularizer": null, "bias_regularizer": null, "activity_regularizer": null, "kernel_constraint": null, "bias_constraint": null}, "name": "block3a_se_reduce", "inbound_nodes": [[["block3a_se_reshape", 0, 0, {}]]]}, {"class_name": "Conv2D", "config": {"name": "block3a_se_expand", "trainable": true, "dtype": "float32", "filters": 144, "kernel_size": [1, 1], "strides": [1, 1], "padding": "same", "data_format": "channels_last", "dilation_rate": [1, 1], "groups": 1, "activation": "sigmoid", "use_bias": true, "kernel_initializer": {"class_name": "VarianceScaling", "config": {"scale": 2.0, "mode": "fan_out", "distribution": "truncated_normal", "seed": null}}, "bias_initializer": {"class_name": "Zeros", "config": {}}, "kernel_regularizer": null, "bias_regularizer": null, "activity_regularizer": null, "kernel_constraint": null, "bias_constraint": null}, "name": "block3a_se_expand", "inbound_nodes": [[["block3a_se_reduce", 0, 0, {}]]]}, {"class_name": "Multiply", "config": {"name": "block3a_se_excite", "trainable": true, "dtype": "float32"}, "name": "block3a_se_excite", "inbound_nodes": [[["block3a_activation", 0, 0, {}], ["block3a_se_expand", 0, 0, {}]]]}, {"class_name": "Conv2D", "config": {"name": "block3a_project_conv", "trainable": true, "dtype": "float32", "filters": 40, "kernel_size": [1, 1], "strides": [1, 1], "padding": "same", "data_format": "channels_last", "dilation_rate": [1, 1], "groups": 1, "activation": "linear", "use_bias": false, "kernel_initializer": {"class_name": "VarianceScaling", "config": {"scale": 2.0, "mode": "fan_out", "distribution": "truncated_normal", "seed": null}}, "bias_initializer": {"class_name": "Zeros", "config": {}}, "kernel_regularizer": null, "bias_regularizer": null, "activity_regularizer": null, "kernel_constraint": null, "bias_constraint": null}, "name": "block3a_project_conv", "inbound_nodes": [[["block3a_se_excite", 0, 0, {}]]]}, {"class_name": "BatchNormalization", "config": {"name": "block3a_project_bn", "trainable": true, "dtype": "float32", "axis": [3], "momentum": 0.99, "epsilon": 0.001, "center": true, "scale": true, "beta_initializer": {"class_name": "Zeros", "config": {}}, "gamma_initializer": {"class_name": "Ones", "config": {}}, "moving_mean_initializer": {"class_name": "Zeros", "config": {}}, "moving_variance_initializer": {"class_name": "Ones", "config": {}}, "beta_regularizer": null, "gamma_regularizer": null, "beta_constraint": null, "gamma_constraint": null}, "name": "block3a_project_bn", "inbound_nodes": [[["block3a_project_conv", 0, 0, {}]]]}, {"class_name": "Conv2D", "config": {"name": "block3b_expand_conv", "trainable": true, "dtype": "float32", "filters": 240, "kernel_size": [1, 1], "strides": [1, 1], "padding": "same", "data_format": "channels_last", "dilation_rate": [1, 1], "groups": 1, "activation": "linear", "use_bias": false, "kernel_initializer": {"class_name": "VarianceScaling", "config": {"scale": 2.0, "mode": "fan_out", "distribution": "truncated_normal", "seed": null}}, "bias_initializer": {"class_name": "Zeros", "config": {}}, "kernel_regularizer": null, "bias_regularizer": null, "activity_regularizer": null, "kernel_constraint": null, "bias_constraint": null}, "name": "block3b_expand_conv", "inbound_nodes": [[["block3a_project_bn", 0, 0, {}]]]}, {"class_name": "BatchNormalization", "config": {"name": "block3b_expand_bn", "trainable": true, "dtype": "float32", "axis": [3], "momentum": 0.99, "epsilon": 0.001, "center": true, "scale": true, "beta_initializer": {"class_name": "Zeros", "config": {}}, "gamma_initializer": {"class_name": "Ones", "config": {}}, "moving_mean_initializer": {"class_name": "Zeros", "config": {}}, "moving_variance_initializer": {"class_name": "Ones", "config": {}}, "beta_regularizer": null, "gamma_regularizer": null, "beta_constraint": null, "gamma_constraint": null}, "name": "block3b_expand_bn", "inbound_nodes": [[["block3b_expand_conv", 0, 0, {}]]]}, {"class_name": "Activation", "config": {"name": "block3b_expand_activation", "trainable": true, "dtype": "float32", "activation": "swish"}, "name": "block3b_expand_activation", "inbound_nodes": [[["block3b_expand_bn", 0, 0, {}]]]}, {"class_name": "DepthwiseConv2D", "config": {"name": "block3b_dwconv", "trainable": true, "dtype": "float32", "kernel_size": [5, 5], "strides": [1, 1], "padding": "same", "data_format": "channels_last", "dilation_rate": [1, 1], "groups": 1, "activation": "linear", "use_bias": false, "bias_initializer": {"class_name": "Zeros", "config": {}}, "bias_regularizer": null, "activity_regularizer": null, "bias_constraint": null, "depth_multiplier": 1, "depthwise_initializer": {"class_name": "VarianceScaling", "config": {"scale": 2.0, "mode": "fan_out", "distribution": "truncated_normal", "seed": null}}, "depthwise_regularizer": null, "depthwise_constraint": null}, "name": "block3b_dwconv", "inbound_nodes": [[["block3b_expand_activation", 0, 0, {}]]]}, {"class_name": "BatchNormalization", "config": {"name": "block3b_bn", "trainable": true, "dtype": "float32", "axis": [3], "momentum": 0.99, "epsilon": 0.001, "center": true, "scale": true, "beta_initializer": {"class_name": "Zeros", "config": {}}, "gamma_initializer": {"class_name": "Ones", "config": {}}, "moving_mean_initializer": {"class_name": "Zeros", "config": {}}, "moving_variance_initializer": {"class_name": "Ones", "config": {}}, "beta_regularizer": null, "gamma_regularizer": null, "beta_constraint": null, "gamma_constraint": null}, "name": "block3b_bn", "inbound_nodes": [[["block3b_dwconv", 0, 0, {}]]]}, {"class_name": "Activation", "config": {"name": "block3b_activation", "trainable": true, "dtype": "float32", "activation": "swish"}, "name": "block3b_activation", "inbound_nodes": [[["block3b_bn", 0, 0, {}]]]}, {"class_name": "GlobalAveragePooling2D", "config": {"name": "block3b_se_squeeze", "trainable": true, "dtype": "float32", "data_format": "channels_last"}, "name": "block3b_se_squeeze", "inbound_nodes": [[["block3b_activation", 0, 0, {}]]]}, {"class_name": "Reshape", "config": {"name": "block3b_se_reshape", "trainable": true, "dtype": "float32", "target_shape": [1, 1, 240]}, "name": "block3b_se_reshape", "inbound_nodes": [[["block3b_se_squeeze", 0, 0, {}]]]}, {"class_name": "Conv2D", "config": {"name": "block3b_se_reduce", "trainable": true, "dtype": "float32", "filters": 10, "kernel_size": [1, 1], "strides": [1, 1], "padding": "same", "data_format": "channels_last", "dilation_rate": [1, 1], "groups": 1, "activation": "swish", "use_bias": true, "kernel_initializer": {"class_name": "VarianceScaling", "config": {"scale": 2.0, "mode": "fan_out", "distribution": "truncated_normal", "seed": null}}, "bias_initializer": {"class_name": "Zeros", "config": {}}, "kernel_regularizer": null, "bias_regularizer": null, "activity_regularizer": null, "kernel_constraint": null, "bias_constraint": null}, "name": "block3b_se_reduce", "inbound_nodes": [[["block3b_se_reshape", 0, 0, {}]]]}, {"class_name": "Conv2D", "config": {"name": "block3b_se_expand", "trainable": true, "dtype": "float32", "filters": 240, "kernel_size": [1, 1], "strides": [1, 1], "padding": "same", "data_format": "channels_last", "dilation_rate": [1, 1], "groups": 1, "activation": "sigmoid", "use_bias": true, "kernel_initializer": {"class_name": "VarianceScaling", "config": {"scale": 2.0, "mode": "fan_out", "distribution": "truncated_normal", "seed": null}}, "bias_initializer": {"class_name": "Zeros", "config": {}}, "kernel_regularizer": null, "bias_regularizer": null, "activity_regularizer": null, "kernel_constraint": null, "bias_constraint": null}, "name": "block3b_se_expand", "inbound_nodes": [[["block3b_se_reduce", 0, 0, {}]]]}, {"class_name": "Multiply", "config": {"name": "block3b_se_excite", "trainable": true, "dtype": "float32"}, "name": "block3b_se_excite", "inbound_nodes": [[["block3b_activation", 0, 0, {}], ["block3b_se_expand", 0, 0, {}]]]}, {"class_name": "Conv2D", "config": {"name": "block3b_project_conv", "trainable": true, "dtype": "float32", "filters": 40, "kernel_size": [1, 1], "strides": [1, 1], "padding": "same", "data_format": "channels_last", "dilation_rate": [1, 1], "groups": 1, "activation": "linear", "use_bias": false, "kernel_initializer": {"class_name": "VarianceScaling", "config": {"scale": 2.0, "mode": "fan_out", "distribution": "truncated_normal", "seed": null}}, "bias_initializer": {"class_name": "Zeros", "config": {}}, "kernel_regularizer": null, "bias_regularizer": null, "activity_regularizer": null, "kernel_constraint": null, "bias_constraint": null}, "name": "block3b_project_conv", "inbound_nodes": [[["block3b_se_excite", 0, 0, {}]]]}, {"class_name": "BatchNormalization", "config": {"name": "block3b_project_bn", "trainable": true, "dtype": "float32", "axis": [3], "momentum": 0.99, "epsilon": 0.001, "center": true, "scale": true, "beta_initializer": {"class_name": "Zeros", "config": {}}, "gamma_initializer": {"class_name": "Ones", "config": {}}, "moving_mean_initializer": {"class_name": "Zeros", "config": {}}, "moving_variance_initializer": {"class_name": "Ones", "config": {}}, "beta_regularizer": null, "gamma_regularizer": null, "beta_constraint": null, "gamma_constraint": null}, "name": "block3b_project_bn", "inbound_nodes": [[["block3b_project_conv", 0, 0, {}]]]}, {"class_name": "Dropout", "config": {"name": "block3b_drop", "trainable": true, "dtype": "float32", "rate": 0.05, "noise_shape": [null, 1, 1, 1], "seed": null}, "name": "block3b_drop", "inbound_nodes": [[["block3b_project_bn", 0, 0, {}]]]}, {"class_name": "Add", "config": {"name": "block3b_add", "trainable": true, "dtype": "float32"}, "name": "block3b_add", "inbound_nodes": [[["block3b_drop", 0, 0, {}], ["block3a_project_bn", 0, 0, {}]]]}, {"class_name": "Conv2D", "config": {"name": "block4a_expand_conv", "trainable": true, "dtype": "float32", "filters": 240, "kernel_size": [1, 1], "strides": [1, 1], "padding": "same", "data_format": "channels_last", "dilation_rate": [1, 1], "groups": 1, "activation": "linear", "use_bias": false, "kernel_initializer": {"class_name": "VarianceScaling", "config": {"scale": 2.0, "mode": "fan_out", "distribution": "truncated_normal", "seed": null}}, "bias_initializer": {"class_name": "Zeros", "config": {}}, "kernel_regularizer": null, "bias_regularizer": null, "activity_regularizer": null, "kernel_constraint": null, "bias_constraint": null}, "name": "block4a_expand_conv", "inbound_nodes": [[["block3b_add", 0, 0, {}]]]}, {"class_name": "BatchNormalization", "config": {"name": "block4a_expand_bn", "trainable": true, "dtype": "float32", "axis": [3], "momentum": 0.99, "epsilon": 0.001, "center": true, "scale": true, "beta_initializer": {"class_name": "Zeros", "config": {}}, "gamma_initializer": {"class_name": "Ones", "config": {}}, "moving_mean_initializer": {"class_name": "Zeros", "config": {}}, "moving_variance_initializer": {"class_name": "Ones", "config": {}}, "beta_regularizer": null, "gamma_regularizer": null, "beta_constraint": null, "gamma_constraint": null}, "name": "block4a_expand_bn", "inbound_nodes": [[["block4a_expand_conv", 0, 0, {}]]]}, {"class_name": "Activation", "config": {"name": "block4a_expand_activation", "trainable": true, "dtype": "float32", "activation": "swish"}, "name": "block4a_expand_activation", "inbound_nodes": [[["block4a_expand_bn", 0, 0, {}]]]}, {"class_name": "ZeroPadding2D", "config": {"name": "block4a_dwconv_pad", "trainable": true, "dtype": "float32", "padding": [[1, 1], [1, 1]], "data_format": "channels_last"}, "name": "block4a_dwconv_pad", "inbound_nodes": [[["block4a_expand_activation", 0, 0, {}]]]}, {"class_name": "DepthwiseConv2D", "config": {"name": "block4a_dwconv", "trainable": true, "dtype": "float32", "kernel_size": [3, 3], "strides": [2, 2], "padding": "valid", "data_format": "channels_last", "dilation_rate": [1, 1], "groups": 1, "activation": "linear", "use_bias": false, "bias_initializer": {"class_name": "Zeros", "config": {}}, "bias_regularizer": null, "activity_regularizer": null, "bias_constraint": null, "depth_multiplier": 1, "depthwise_initializer": {"class_name": "VarianceScaling", "config": {"scale": 2.0, "mode": "fan_out", "distribution": "truncated_normal", "seed": null}}, "depthwise_regularizer": null, "depthwise_constraint": null}, "name": "block4a_dwconv", "inbound_nodes": [[["block4a_dwconv_pad", 0, 0, {}]]]}, {"class_name": "BatchNormalization", "config": {"name": "block4a_bn", "trainable": true, "dtype": "float32", "axis": [3], "momentum": 0.99, "epsilon": 0.001, "center": true, "scale": true, "beta_initializer": {"class_name": "Zeros", "config": {}}, "gamma_initializer": {"class_name": "Ones", "config": {}}, "moving_mean_initializer": {"class_name": "Zeros", "config": {}}, "moving_variance_initializer": {"class_name": "Ones", "config": {}}, "beta_regularizer": null, "gamma_regularizer": null, "beta_constraint": null, "gamma_constraint": null}, "name": "block4a_bn", "inbound_nodes": [[["block4a_dwconv", 0, 0, {}]]]}, {"class_name": "Activation", "config": {"name": "block4a_activation", "trainable": true, "dtype": "float32", "activation": "swish"}, "name": "block4a_activation", "inbound_nodes": [[["block4a_bn", 0, 0, {}]]]}, {"class_name": "GlobalAveragePooling2D", "config": {"name": "block4a_se_squeeze", "trainable": true, "dtype": "float32", "data_format": "channels_last"}, "name": "block4a_se_squeeze", "inbound_nodes": [[["block4a_activation", 0, 0, {}]]]}, {"class_name": "Reshape", "config": {"name": "block4a_se_reshape", "trainable": true, "dtype": "float32", "target_shape": [1, 1, 240]}, "name": "block4a_se_reshape", "inbound_nodes": [[["block4a_se_squeeze", 0, 0, {}]]]}, {"class_name": "Conv2D", "config": {"name": "block4a_se_reduce", "trainable": true, "dtype": "float32", "filters": 10, "kernel_size": [1, 1], "strides": [1, 1], "padding": "same", "data_format": "channels_last", "dilation_rate": [1, 1], "groups": 1, "activation": "swish", "use_bias": true, "kernel_initializer": {"class_name": "VarianceScaling", "config": {"scale": 2.0, "mode": "fan_out", "distribution": "truncated_normal", "seed": null}}, "bias_initializer": {"class_name": "Zeros", "config": {}}, "kernel_regularizer": null, "bias_regularizer": null, "activity_regularizer": null, "kernel_constraint": null, "bias_constraint": null}, "name": "block4a_se_reduce", "inbound_nodes": [[["block4a_se_reshape", 0, 0, {}]]]}, {"class_name": "Conv2D", "config": {"name": "block4a_se_expand", "trainable": true, "dtype": "float32", "filters": 240, "kernel_size": [1, 1], "strides": [1, 1], "padding": "same", "data_format": "channels_last", "dilation_rate": [1, 1], "groups": 1, "activation": "sigmoid", "use_bias": true, "kernel_initializer": {"class_name": "VarianceScaling", "config": {"scale": 2.0, "mode": "fan_out", "distribution": "truncated_normal", "seed": null}}, "bias_initializer": {"class_name": "Zeros", "config": {}}, "kernel_regularizer": null, "bias_regularizer": null, "activity_regularizer": null, "kernel_constraint": null, "bias_constraint": null}, "name": "block4a_se_expand", "inbound_nodes": [[["block4a_se_reduce", 0, 0, {}]]]}, {"class_name": "Multiply", "config": {"name": "block4a_se_excite", "trainable": true, "dtype": "float32"}, "name": "block4a_se_excite", "inbound_nodes": [[["block4a_activation", 0, 0, {}], ["block4a_se_expand", 0, 0, {}]]]}, {"class_name": "Conv2D", "config": {"name": "block4a_project_conv", "trainable": true, "dtype": "float32", "filters": 80, "kernel_size": [1, 1], "strides": [1, 1], "padding": "same", "data_format": "channels_last", "dilation_rate": [1, 1], "groups": 1, "activation": "linear", "use_bias": false, "kernel_initializer": {"class_name": "VarianceScaling", "config": {"scale": 2.0, "mode": "fan_out", "distribution": "truncated_normal", "seed": null}}, "bias_initializer": {"class_name": "Zeros", "config": {}}, "kernel_regularizer": null, "bias_regularizer": null, "activity_regularizer": null, "kernel_constraint": null, "bias_constraint": null}, "name": "block4a_project_conv", "inbound_nodes": [[["block4a_se_excite", 0, 0, {}]]]}, {"class_name": "BatchNormalization", "config": {"name": "block4a_project_bn", "trainable": true, "dtype": "float32", "axis": [3], "momentum": 0.99, "epsilon": 0.001, "center": true, "scale": true, "beta_initializer": {"class_name": "Zeros", "config": {}}, "gamma_initializer": {"class_name": "Ones", "config": {}}, "moving_mean_initializer": {"class_name": "Zeros", "config": {}}, "moving_variance_initializer": {"class_name": "Ones", "config": {}}, "beta_regularizer": null, "gamma_regularizer": null, "beta_constraint": null, "gamma_constraint": null}, "name": "block4a_project_bn", "inbound_nodes": [[["block4a_project_conv", 0, 0, {}]]]}, {"class_name": "Conv2D", "config": {"name": "block4b_expand_conv", "trainable": true, "dtype": "float32", "filters": 480, "kernel_size": [1, 1], "strides": [1, 1], "padding": "same", "data_format": "channels_last", "dilation_rate": [1, 1], "groups": 1, "activation": "linear", "use_bias": false, "kernel_initializer": {"class_name": "VarianceScaling", "config": {"scale": 2.0, "mode": "fan_out", "distribution": "truncated_normal", "seed": null}}, "bias_initializer": {"class_name": "Zeros", "config": {}}, "kernel_regularizer": null, "bias_regularizer": null, "activity_regularizer": null, "kernel_constraint": null, "bias_constraint": null}, "name": "block4b_expand_conv", "inbound_nodes": [[["block4a_project_bn", 0, 0, {}]]]}, {"class_name": "BatchNormalization", "config": {"name": "block4b_expand_bn", "trainable": true, "dtype": "float32", "axis": [3], "momentum": 0.99, "epsilon": 0.001, "center": true, "scale": true, "beta_initializer": {"class_name": "Zeros", "config": {}}, "gamma_initializer": {"class_name": "Ones", "config": {}}, "moving_mean_initializer": {"class_name": "Zeros", "config": {}}, "moving_variance_initializer": {"class_name": "Ones", "config": {}}, "beta_regularizer": null, "gamma_regularizer": null, "beta_constraint": null, "gamma_constraint": null}, "name": "block4b_expand_bn", "inbound_nodes": [[["block4b_expand_conv", 0, 0, {}]]]}, {"class_name": "Activation", "config": {"name": "block4b_expand_activation", "trainable": true, "dtype": "float32", "activation": "swish"}, "name": "block4b_expand_activation", "inbound_nodes": [[["block4b_expand_bn", 0, 0, {}]]]}, {"class_name": "DepthwiseConv2D", "config": {"name": "block4b_dwconv", "trainable": true, "dtype": "float32", "kernel_size": [3, 3], "strides": [1, 1], "padding": "same", "data_format": "channels_last", "dilation_rate": [1, 1], "groups": 1, "activation": "linear", "use_bias": false, "bias_initializer": {"class_name": "Zeros", "config": {}}, "bias_regularizer": null, "activity_regularizer": null, "bias_constraint": null, "depth_multiplier": 1, "depthwise_initializer": {"class_name": "VarianceScaling", "config": {"scale": 2.0, "mode": "fan_out", "distribution": "truncated_normal", "seed": null}}, "depthwise_regularizer": null, "depthwise_constraint": null}, "name": "block4b_dwconv", "inbound_nodes": [[["block4b_expand_activation", 0, 0, {}]]]}, {"class_name": "BatchNormalization", "config": {"name": "block4b_bn", "trainable": true, "dtype": "float32", "axis": [3], "momentum": 0.99, "epsilon": 0.001, "center": true, "scale": true, "beta_initializer": {"class_name": "Zeros", "config": {}}, "gamma_initializer": {"class_name": "Ones", "config": {}}, "moving_mean_initializer": {"class_name": "Zeros", "config": {}}, "moving_variance_initializer": {"class_name": "Ones", "config": {}}, "beta_regularizer": null, "gamma_regularizer": null, "beta_constraint": null, "gamma_constraint": null}, "name": "block4b_bn", "inbound_nodes": [[["block4b_dwconv", 0, 0, {}]]]}, {"class_name": "Activation", "config": {"name": "block4b_activation", "trainable": true, "dtype": "float32", "activation": "swish"}, "name": "block4b_activation", "inbound_nodes": [[["block4b_bn", 0, 0, {}]]]}, {"class_name": "GlobalAveragePooling2D", "config": {"name": "block4b_se_squeeze", "trainable": true, "dtype": "float32", "data_format": "channels_last"}, "name": "block4b_se_squeeze", "inbound_nodes": [[["block4b_activation", 0, 0, {}]]]}, {"class_name": "Reshape", "config": {"name": "block4b_se_reshape", "trainable": true, "dtype": "float32", "target_shape": [1, 1, 480]}, "name": "block4b_se_reshape", "inbound_nodes": [[["block4b_se_squeeze", 0, 0, {}]]]}, {"class_name": "Conv2D", "config": {"name": "block4b_se_reduce", "trainable": true, "dtype": "float32", "filters": 20, "kernel_size": [1, 1], "strides": [1, 1], "padding": "same", "data_format": "channels_last", "dilation_rate": [1, 1], "groups": 1, "activation": "swish", "use_bias": true, "kernel_initializer": {"class_name": "VarianceScaling", "config": {"scale": 2.0, "mode": "fan_out", "distribution": "truncated_normal", "seed": null}}, "bias_initializer": {"class_name": "Zeros", "config": {}}, "kernel_regularizer": null, "bias_regularizer": null, "activity_regularizer": null, "kernel_constraint": null, "bias_constraint": null}, "name": "block4b_se_reduce", "inbound_nodes": [[["block4b_se_reshape", 0, 0, {}]]]}, {"class_name": "Conv2D", "config": {"name": "block4b_se_expand", "trainable": true, "dtype": "float32", "filters": 480, "kernel_size": [1, 1], "strides": [1, 1], "padding": "same", "data_format": "channels_last", "dilation_rate": [1, 1], "groups": 1, "activation": "sigmoid", "use_bias": true, "kernel_initializer": {"class_name": "VarianceScaling", "config": {"scale": 2.0, "mode": "fan_out", "distribution": "truncated_normal", "seed": null}}, "bias_initializer": {"class_name": "Zeros", "config": {}}, "kernel_regularizer": null, "bias_regularizer": null, "activity_regularizer": null, "kernel_constraint": null, "bias_constraint": null}, "name": "block4b_se_expand", "inbound_nodes": [[["block4b_se_reduce", 0, 0, {}]]]}, {"class_name": "Multiply", "config": {"name": "block4b_se_excite", "trainable": true, "dtype": "float32"}, "name": "block4b_se_excite", "inbound_nodes": [[["block4b_activation", 0, 0, {}], ["block4b_se_expand", 0, 0, {}]]]}, {"class_name": "Conv2D", "config": {"name": "block4b_project_conv", "trainable": true, "dtype": "float32", "filters": 80, "kernel_size": [1, 1], "strides": [1, 1], "padding": "same", "data_format": "channels_last", "dilation_rate": [1, 1], "groups": 1, "activation": "linear", "use_bias": false, "kernel_initializer": {"class_name": "VarianceScaling", "config": {"scale": 2.0, "mode": "fan_out", "distribution": "truncated_normal", "seed": null}}, "bias_initializer": {"class_name": "Zeros", "config": {}}, "kernel_regularizer": null, "bias_regularizer": null, "activity_regularizer": null, "kernel_constraint": null, "bias_constraint": null}, "name": "block4b_project_conv", "inbound_nodes": [[["block4b_se_excite", 0, 0, {}]]]}, {"class_name": "BatchNormalization", "config": {"name": "block4b_project_bn", "trainable": true, "dtype": "float32", "axis": [3], "momentum": 0.99, "epsilon": 0.001, "center": true, "scale": true, "beta_initializer": {"class_name": "Zeros", "config": {}}, "gamma_initializer": {"class_name": "Ones", "config": {}}, "moving_mean_initializer": {"class_name": "Zeros", "config": {}}, "moving_variance_initializer": {"class_name": "Ones", "config": {}}, "beta_regularizer": null, "gamma_regularizer": null, "beta_constraint": null, "gamma_constraint": null}, "name": "block4b_project_bn", "inbound_nodes": [[["block4b_project_conv", 0, 0, {}]]]}, {"class_name": "Dropout", "config": {"name": "block4b_drop", "trainable": true, "dtype": "float32", "rate": 0.07500000000000001, "noise_shape": [null, 1, 1, 1], "seed": null}, "name": "block4b_drop", "inbound_nodes": [[["block4b_project_bn", 0, 0, {}]]]}, {"class_name": "Add", "config": {"name": "block4b_add", "trainable": true, "dtype": "float32"}, "name": "block4b_add", "inbound_nodes": [[["block4b_drop", 0, 0, {}], ["block4a_project_bn", 0, 0, {}]]]}, {"class_name": "Conv2D", "config": {"name": "block4c_expand_conv", "trainable": true, "dtype": "float32", "filters": 480, "kernel_size": [1, 1], "strides": [1, 1], "padding": "same", "data_format": "channels_last", "dilation_rate": [1, 1], "groups": 1, "activation": "linear", "use_bias": false, "kernel_initializer": {"class_name": "VarianceScaling", "config": {"scale": 2.0, "mode": "fan_out", "distribution": "truncated_normal", "seed": null}}, "bias_initializer": {"class_name": "Zeros", "config": {}}, "kernel_regularizer": null, "bias_regularizer": null, "activity_regularizer": null, "kernel_constraint": null, "bias_constraint": null}, "name": "block4c_expand_conv", "inbound_nodes": [[["block4b_add", 0, 0, {}]]]}, {"class_name": "BatchNormalization", "config": {"name": "block4c_expand_bn", "trainable": true, "dtype": "float32", "axis": [3], "momentum": 0.99, "epsilon": 0.001, "center": true, "scale": true, "beta_initializer": {"class_name": "Zeros", "config": {}}, "gamma_initializer": {"class_name": "Ones", "config": {}}, "moving_mean_initializer": {"class_name": "Zeros", "config": {}}, "moving_variance_initializer": {"class_name": "Ones", "config": {}}, "beta_regularizer": null, "gamma_regularizer": null, "beta_constraint": null, "gamma_constraint": null}, "name": "block4c_expand_bn", "inbound_nodes": [[["block4c_expand_conv", 0, 0, {}]]]}, {"class_name": "Activation", "config": {"name": "block4c_expand_activation", "trainable": true, "dtype": "float32", "activation": "swish"}, "name": "block4c_expand_activation", "inbound_nodes": [[["block4c_expand_bn", 0, 0, {}]]]}, {"class_name": "DepthwiseConv2D", "config": {"name": "block4c_dwconv", "trainable": true, "dtype": "float32", "kernel_size": [3, 3], "strides": [1, 1], "padding": "same", "data_format": "channels_last", "dilation_rate": [1, 1], "groups": 1, "activation": "linear", "use_bias": false, "bias_initializer": {"class_name": "Zeros", "config": {}}, "bias_regularizer": null, "activity_regularizer": null, "bias_constraint": null, "depth_multiplier": 1, "depthwise_initializer": {"class_name": "VarianceScaling", "config": {"scale": 2.0, "mode": "fan_out", "distribution": "truncated_normal", "seed": null}}, "depthwise_regularizer": null, "depthwise_constraint": null}, "name": "block4c_dwconv", "inbound_nodes": [[["block4c_expand_activation", 0, 0, {}]]]}, {"class_name": "BatchNormalization", "config": {"name": "block4c_bn", "trainable": true, "dtype": "float32", "axis": [3], "momentum": 0.99, "epsilon": 0.001, "center": true, "scale": true, "beta_initializer": {"class_name": "Zeros", "config": {}}, "gamma_initializer": {"class_name": "Ones", "config": {}}, "moving_mean_initializer": {"class_name": "Zeros", "config": {}}, "moving_variance_initializer": {"class_name": "Ones", "config": {}}, "beta_regularizer": null, "gamma_regularizer": null, "beta_constraint": null, "gamma_constraint": null}, "name": "block4c_bn", "inbound_nodes": [[["block4c_dwconv", 0, 0, {}]]]}, {"class_name": "Activation", "config": {"name": "block4c_activation", "trainable": true, "dtype": "float32", "activation": "swish"}, "name": "block4c_activation", "inbound_nodes": [[["block4c_bn", 0, 0, {}]]]}, {"class_name": "GlobalAveragePooling2D", "config": {"name": "block4c_se_squeeze", "trainable": true, "dtype": "float32", "data_format": "channels_last"}, "name": "block4c_se_squeeze", "inbound_nodes": [[["block4c_activation", 0, 0, {}]]]}, {"class_name": "Reshape", "config": {"name": "block4c_se_reshape", "trainable": true, "dtype": "float32", "target_shape": [1, 1, 480]}, "name": "block4c_se_reshape", "inbound_nodes": [[["block4c_se_squeeze", 0, 0, {}]]]}, {"class_name": "Conv2D", "config": {"name": "block4c_se_reduce", "trainable": true, "dtype": "float32", "filters": 20, "kernel_size": [1, 1], "strides": [1, 1], "padding": "same", "data_format": "channels_last", "dilation_rate": [1, 1], "groups": 1, "activation": "swish", "use_bias": true, "kernel_initializer": {"class_name": "VarianceScaling", "config": {"scale": 2.0, "mode": "fan_out", "distribution": "truncated_normal", "seed": null}}, "bias_initializer": {"class_name": "Zeros", "config": {}}, "kernel_regularizer": null, "bias_regularizer": null, "activity_regularizer": null, "kernel_constraint": null, "bias_constraint": null}, "name": "block4c_se_reduce", "inbound_nodes": [[["block4c_se_reshape", 0, 0, {}]]]}, {"class_name": "Conv2D", "config": {"name": "block4c_se_expand", "trainable": true, "dtype": "float32", "filters": 480, "kernel_size": [1, 1], "strides": [1, 1], "padding": "same", "data_format": "channels_last", "dilation_rate": [1, 1], "groups": 1, "activation": "sigmoid", "use_bias": true, "kernel_initializer": {"class_name": "VarianceScaling", "config": {"scale": 2.0, "mode": "fan_out", "distribution": "truncated_normal", "seed": null}}, "bias_initializer": {"class_name": "Zeros", "config": {}}, "kernel_regularizer": null, "bias_regularizer": null, "activity_regularizer": null, "kernel_constraint": null, "bias_constraint": null}, "name": "block4c_se_expand", "inbound_nodes": [[["block4c_se_reduce", 0, 0, {}]]]}, {"class_name": "Multiply", "config": {"name": "block4c_se_excite", "trainable": true, "dtype": "float32"}, "name": "block4c_se_excite", "inbound_nodes": [[["block4c_activation", 0, 0, {}], ["block4c_se_expand", 0, 0, {}]]]}, {"class_name": "Conv2D", "config": {"name": "block4c_project_conv", "trainable": true, "dtype": "float32", "filters": 80, "kernel_size": [1, 1], "strides": [1, 1], "padding": "same", "data_format": "channels_last", "dilation_rate": [1, 1], "groups": 1, "activation": "linear", "use_bias": false, "kernel_initializer": {"class_name": "VarianceScaling", "config": {"scale": 2.0, "mode": "fan_out", "distribution": "truncated_normal", "seed": null}}, "bias_initializer": {"class_name": "Zeros", "config": {}}, "kernel_regularizer": null, "bias_regularizer": null, "activity_regularizer": null, "kernel_constraint": null, "bias_constraint": null}, "name": "block4c_project_conv", "inbound_nodes": [[["block4c_se_excite", 0, 0, {}]]]}, {"class_name": "BatchNormalization", "config": {"name": "block4c_project_bn", "trainable": true, "dtype": "float32", "axis": [3], "momentum": 0.99, "epsilon": 0.001, "center": true, "scale": true, "beta_initializer": {"class_name": "Zeros", "config": {}}, "gamma_initializer": {"class_name": "Ones", "config": {}}, "moving_mean_initializer": {"class_name": "Zeros", "config": {}}, "moving_variance_initializer": {"class_name": "Ones", "config": {}}, "beta_regularizer": null, "gamma_regularizer": null, "beta_constraint": null, "gamma_constraint": null}, "name": "block4c_project_bn", "inbound_nodes": [[["block4c_project_conv", 0, 0, {}]]]}, {"class_name": "Dropout", "config": {"name": "block4c_drop", "trainable": true, "dtype": "float32", "rate": 0.08750000000000001, "noise_shape": [null, 1, 1, 1], "seed": null}, "name": "block4c_drop", "inbound_nodes": [[["block4c_project_bn", 0, 0, {}]]]}, {"class_name": "Add", "config": {"name": "block4c_add", "trainable": true, "dtype": "float32"}, "name": "block4c_add", "inbound_nodes": [[["block4c_drop", 0, 0, {}], ["block4b_add", 0, 0, {}]]]}, {"class_name": "Conv2D", "config": {"name": "block5a_expand_conv", "trainable": true, "dtype": "float32", "filters": 480, "kernel_size": [1, 1], "strides": [1, 1], "padding": "same", "data_format": "channels_last", "dilation_rate": [1, 1], "groups": 1, "activation": "linear", "use_bias": false, "kernel_initializer": {"class_name": "VarianceScaling", "config": {"scale": 2.0, "mode": "fan_out", "distribution": "truncated_normal", "seed": null}}, "bias_initializer": {"class_name": "Zeros", "config": {}}, "kernel_regularizer": null, "bias_regularizer": null, "activity_regularizer": null, "kernel_constraint": null, "bias_constraint": null}, "name": "block5a_expand_conv", "inbound_nodes": [[["block4c_add", 0, 0, {}]]]}, {"class_name": "BatchNormalization", "config": {"name": "block5a_expand_bn", "trainable": true, "dtype": "float32", "axis": [3], "momentum": 0.99, "epsilon": 0.001, "center": true, "scale": true, "beta_initializer": {"class_name": "Zeros", "config": {}}, "gamma_initializer": {"class_name": "Ones", "config": {}}, "moving_mean_initializer": {"class_name": "Zeros", "config": {}}, "moving_variance_initializer": {"class_name": "Ones", "config": {}}, "beta_regularizer": null, "gamma_regularizer": null, "beta_constraint": null, "gamma_constraint": null}, "name": "block5a_expand_bn", "inbound_nodes": [[["block5a_expand_conv", 0, 0, {}]]]}, {"class_name": "Activation", "config": {"name": "block5a_expand_activation", "trainable": true, "dtype": "float32", "activation": "swish"}, "name": "block5a_expand_activation", "inbound_nodes": [[["block5a_expand_bn", 0, 0, {}]]]}, {"class_name": "DepthwiseConv2D", "config": {"name": "block5a_dwconv", "trainable": true, "dtype": "float32", "kernel_size": [5, 5], "strides": [1, 1], "padding": "same", "data_format": "channels_last", "dilation_rate": [1, 1], "groups": 1, "activation": "linear", "use_bias": false, "bias_initializer": {"class_name": "Zeros", "config": {}}, "bias_regularizer": null, "activity_regularizer": null, "bias_constraint": null, "depth_multiplier": 1, "depthwise_initializer": {"class_name": "VarianceScaling", "config": {"scale": 2.0, "mode": "fan_out", "distribution": "truncated_normal", "seed": null}}, "depthwise_regularizer": null, "depthwise_constraint": null}, "name": "block5a_dwconv", "inbound_nodes": [[["block5a_expand_activation", 0, 0, {}]]]}, {"class_name": "BatchNormalization", "config": {"name": "block5a_bn", "trainable": true, "dtype": "float32", "axis": [3], "momentum": 0.99, "epsilon": 0.001, "center": true, "scale": true, "beta_initializer": {"class_name": "Zeros", "config": {}}, "gamma_initializer": {"class_name": "Ones", "config": {}}, "moving_mean_initializer": {"class_name": "Zeros", "config": {}}, "moving_variance_initializer": {"class_name": "Ones", "config": {}}, "beta_regularizer": null, "gamma_regularizer": null, "beta_constraint": null, "gamma_constraint": null}, "name": "block5a_bn", "inbound_nodes": [[["block5a_dwconv", 0, 0, {}]]]}, {"class_name": "Activation", "config": {"name": "block5a_activation", "trainable": true, "dtype": "float32", "activation": "swish"}, "name": "block5a_activation", "inbound_nodes": [[["block5a_bn", 0, 0, {}]]]}, {"class_name": "GlobalAveragePooling2D", "config": {"name": "block5a_se_squeeze", "trainable": true, "dtype": "float32", "data_format": "channels_last"}, "name": "block5a_se_squeeze", "inbound_nodes": [[["block5a_activation", 0, 0, {}]]]}, {"class_name": "Reshape", "config": {"name": "block5a_se_reshape", "trainable": true, "dtype": "float32", "target_shape": [1, 1, 480]}, "name": "block5a_se_reshape", "inbound_nodes": [[["block5a_se_squeeze", 0, 0, {}]]]}, {"class_name": "Conv2D", "config": {"name": "block5a_se_reduce", "trainable": true, "dtype": "float32", "filters": 20, "kernel_size": [1, 1], "strides": [1, 1], "padding": "same", "data_format": "channels_last", "dilation_rate": [1, 1], "groups": 1, "activation": "swish", "use_bias": true, "kernel_initializer": {"class_name": "VarianceScaling", "config": {"scale": 2.0, "mode": "fan_out", "distribution": "truncated_normal", "seed": null}}, "bias_initializer": {"class_name": "Zeros", "config": {}}, "kernel_regularizer": null, "bias_regularizer": null, "activity_regularizer": null, "kernel_constraint": null, "bias_constraint": null}, "name": "block5a_se_reduce", "inbound_nodes": [[["block5a_se_reshape", 0, 0, {}]]]}, {"class_name": "Conv2D", "config": {"name": "block5a_se_expand", "trainable": true, "dtype": "float32", "filters": 480, "kernel_size": [1, 1], "strides": [1, 1], "padding": "same", "data_format": "channels_last", "dilation_rate": [1, 1], "groups": 1, "activation": "sigmoid", "use_bias": true, "kernel_initializer": {"class_name": "VarianceScaling", "config": {"scale": 2.0, "mode": "fan_out", "distribution": "truncated_normal", "seed": null}}, "bias_initializer": {"class_name": "Zeros", "config": {}}, "kernel_regularizer": null, "bias_regularizer": null, "activity_regularizer": null, "kernel_constraint": null, "bias_constraint": null}, "name": "block5a_se_expand", "inbound_nodes": [[["block5a_se_reduce", 0, 0, {}]]]}, {"class_name": "Multiply", "config": {"name": "block5a_se_excite", "trainable": true, "dtype": "float32"}, "name": "block5a_se_excite", "inbound_nodes": [[["block5a_activation", 0, 0, {}], ["block5a_se_expand", 0, 0, {}]]]}, {"class_name": "Conv2D", "config": {"name": "block5a_project_conv", "trainable": true, "dtype": "float32", "filters": 112, "kernel_size": [1, 1], "strides": [1, 1], "padding": "same", "data_format": "channels_last", "dilation_rate": [1, 1], "groups": 1, "activation": "linear", "use_bias": false, "kernel_initializer": {"class_name": "VarianceScaling", "config": {"scale": 2.0, "mode": "fan_out", "distribution": "truncated_normal", "seed": null}}, "bias_initializer": {"class_name": "Zeros", "config": {}}, "kernel_regularizer": null, "bias_regularizer": null, "activity_regularizer": null, "kernel_constraint": null, "bias_constraint": null}, "name": "block5a_project_conv", "inbound_nodes": [[["block5a_se_excite", 0, 0, {}]]]}, {"class_name": "BatchNormalization", "config": {"name": "block5a_project_bn", "trainable": true, "dtype": "float32", "axis": [3], "momentum": 0.99, "epsilon": 0.001, "center": true, "scale": true, "beta_initializer": {"class_name": "Zeros", "config": {}}, "gamma_initializer": {"class_name": "Ones", "config": {}}, "moving_mean_initializer": {"class_name": "Zeros", "config": {}}, "moving_variance_initializer": {"class_name": "Ones", "config": {}}, "beta_regularizer": null, "gamma_regularizer": null, "beta_constraint": null, "gamma_constraint": null}, "name": "block5a_project_bn", "inbound_nodes": [[["block5a_project_conv", 0, 0, {}]]]}, {"class_name": "Conv2D", "config": {"name": "block5b_expand_conv", "trainable": true, "dtype": "float32", "filters": 672, "kernel_size": [1, 1], "strides": [1, 1], "padding": "same", "data_format": "channels_last", "dilation_rate": [1, 1], "groups": 1, "activation": "linear", "use_bias": false, "kernel_initializer": {"class_name": "VarianceScaling", "config": {"scale": 2.0, "mode": "fan_out", "distribution": "truncated_normal", "seed": null}}, "bias_initializer": {"class_name": "Zeros", "config": {}}, "kernel_regularizer": null, "bias_regularizer": null, "activity_regularizer": null, "kernel_constraint": null, "bias_constraint": null}, "name": "block5b_expand_conv", "inbound_nodes": [[["block5a_project_bn", 0, 0, {}]]]}, {"class_name": "BatchNormalization", "config": {"name": "block5b_expand_bn", "trainable": true, "dtype": "float32", "axis": [3], "momentum": 0.99, "epsilon": 0.001, "center": true, "scale": true, "beta_initializer": {"class_name": "Zeros", "config": {}}, "gamma_initializer": {"class_name": "Ones", "config": {}}, "moving_mean_initializer": {"class_name": "Zeros", "config": {}}, "moving_variance_initializer": {"class_name": "Ones", "config": {}}, "beta_regularizer": null, "gamma_regularizer": null, "beta_constraint": null, "gamma_constraint": null}, "name": "block5b_expand_bn", "inbound_nodes": [[["block5b_expand_conv", 0, 0, {}]]]}, {"class_name": "Activation", "config": {"name": "block5b_expand_activation", "trainable": true, "dtype": "float32", "activation": "swish"}, "name": "block5b_expand_activation", "inbound_nodes": [[["block5b_expand_bn", 0, 0, {}]]]}, {"class_name": "DepthwiseConv2D", "config": {"name": "block5b_dwconv", "trainable": true, "dtype": "float32", "kernel_size": [5, 5], "strides": [1, 1], "padding": "same", "data_format": "channels_last", "dilation_rate": [1, 1], "groups": 1, "activation": "linear", "use_bias": false, "bias_initializer": {"class_name": "Zeros", "config": {}}, "bias_regularizer": null, "activity_regularizer": null, "bias_constraint": null, "depth_multiplier": 1, "depthwise_initializer": {"class_name": "VarianceScaling", "config": {"scale": 2.0, "mode": "fan_out", "distribution": "truncated_normal", "seed": null}}, "depthwise_regularizer": null, "depthwise_constraint": null}, "name": "block5b_dwconv", "inbound_nodes": [[["block5b_expand_activation", 0, 0, {}]]]}, {"class_name": "BatchNormalization", "config": {"name": "block5b_bn", "trainable": true, "dtype": "float32", "axis": [3], "momentum": 0.99, "epsilon": 0.001, "center": true, "scale": true, "beta_initializer": {"class_name": "Zeros", "config": {}}, "gamma_initializer": {"class_name": "Ones", "config": {}}, "moving_mean_initializer": {"class_name": "Zeros", "config": {}}, "moving_variance_initializer": {"class_name": "Ones", "config": {}}, "beta_regularizer": null, "gamma_regularizer": null, "beta_constraint": null, "gamma_constraint": null}, "name": "block5b_bn", "inbound_nodes": [[["block5b_dwconv", 0, 0, {}]]]}, {"class_name": "Activation", "config": {"name": "block5b_activation", "trainable": true, "dtype": "float32", "activation": "swish"}, "name": "block5b_activation", "inbound_nodes": [[["block5b_bn", 0, 0, {}]]]}, {"class_name": "GlobalAveragePooling2D", "config": {"name": "block5b_se_squeeze", "trainable": true, "dtype": "float32", "data_format": "channels_last"}, "name": "block5b_se_squeeze", "inbound_nodes": [[["block5b_activation", 0, 0, {}]]]}, {"class_name": "Reshape", "config": {"name": "block5b_se_reshape", "trainable": true, "dtype": "float32", "target_shape": [1, 1, 672]}, "name": "block5b_se_reshape", "inbound_nodes": [[["block5b_se_squeeze", 0, 0, {}]]]}, {"class_name": "Conv2D", "config": {"name": "block5b_se_reduce", "trainable": true, "dtype": "float32", "filters": 28, "kernel_size": [1, 1], "strides": [1, 1], "padding": "same", "data_format": "channels_last", "dilation_rate": [1, 1], "groups": 1, "activation": "swish", "use_bias": true, "kernel_initializer": {"class_name": "VarianceScaling", "config": {"scale": 2.0, "mode": "fan_out", "distribution": "truncated_normal", "seed": null}}, "bias_initializer": {"class_name": "Zeros", "config": {}}, "kernel_regularizer": null, "bias_regularizer": null, "activity_regularizer": null, "kernel_constraint": null, "bias_constraint": null}, "name": "block5b_se_reduce", "inbound_nodes": [[["block5b_se_reshape", 0, 0, {}]]]}, {"class_name": "Conv2D", "config": {"name": "block5b_se_expand", "trainable": true, "dtype": "float32", "filters": 672, "kernel_size": [1, 1], "strides": [1, 1], "padding": "same", "data_format": "channels_last", "dilation_rate": [1, 1], "groups": 1, "activation": "sigmoid", "use_bias": true, "kernel_initializer": {"class_name": "VarianceScaling", "config": {"scale": 2.0, "mode": "fan_out", "distribution": "truncated_normal", "seed": null}}, "bias_initializer": {"class_name": "Zeros", "config": {}}, "kernel_regularizer": null, "bias_regularizer": null, "activity_regularizer": null, "kernel_constraint": null, "bias_constraint": null}, "name": "block5b_se_expand", "inbound_nodes": [[["block5b_se_reduce", 0, 0, {}]]]}, {"class_name": "Multiply", "config": {"name": "block5b_se_excite", "trainable": true, "dtype": "float32"}, "name": "block5b_se_excite", "inbound_nodes": [[["block5b_activation", 0, 0, {}], ["block5b_se_expand", 0, 0, {}]]]}, {"class_name": "Conv2D", "config": {"name": "block5b_project_conv", "trainable": true, "dtype": "float32", "filters": 112, "kernel_size": [1, 1], "strides": [1, 1], "padding": "same", "data_format": "channels_last", "dilation_rate": [1, 1], "groups": 1, "activation": "linear", "use_bias": false, "kernel_initializer": {"class_name": "VarianceScaling", "config": {"scale": 2.0, "mode": "fan_out", "distribution": "truncated_normal", "seed": null}}, "bias_initializer": {"class_name": "Zeros", "config": {}}, "kernel_regularizer": null, "bias_regularizer": null, "activity_regularizer": null, "kernel_constraint": null, "bias_constraint": null}, "name": "block5b_project_conv", "inbound_nodes": [[["block5b_se_excite", 0, 0, {}]]]}, {"class_name": "BatchNormalization", "config": {"name": "block5b_project_bn", "trainable": true, "dtype": "float32", "axis": [3], "momentum": 0.99, "epsilon": 0.001, "center": true, "scale": true, "beta_initializer": {"class_name": "Zeros", "config": {}}, "gamma_initializer": {"class_name": "Ones", "config": {}}, "moving_mean_initializer": {"class_name": "Zeros", "config": {}}, "moving_variance_initializer": {"class_name": "Ones", "config": {}}, "beta_regularizer": null, "gamma_regularizer": null, "beta_constraint": null, "gamma_constraint": null}, "name": "block5b_project_bn", "inbound_nodes": [[["block5b_project_conv", 0, 0, {}]]]}, {"class_name": "Dropout", "config": {"name": "block5b_drop", "trainable": true, "dtype": "float32", "rate": 0.1125, "noise_shape": [null, 1, 1, 1], "seed": null}, "name": "block5b_drop", "inbound_nodes": [[["block5b_project_bn", 0, 0, {}]]]}, {"class_name": "Add", "config": {"name": "block5b_add", "trainable": true, "dtype": "float32"}, "name": "block5b_add", "inbound_nodes": [[["block5b_drop", 0, 0, {}], ["block5a_project_bn", 0, 0, {}]]]}, {"class_name": "Conv2D", "config": {"name": "block5c_expand_conv", "trainable": true, "dtype": "float32", "filters": 672, "kernel_size": [1, 1], "strides": [1, 1], "padding": "same", "data_format": "channels_last", "dilation_rate": [1, 1], "groups": 1, "activation": "linear", "use_bias": false, "kernel_initializer": {"class_name": "VarianceScaling", "config": {"scale": 2.0, "mode": "fan_out", "distribution": "truncated_normal", "seed": null}}, "bias_initializer": {"class_name": "Zeros", "config": {}}, "kernel_regularizer": null, "bias_regularizer": null, "activity_regularizer": null, "kernel_constraint": null, "bias_constraint": null}, "name": "block5c_expand_conv", "inbound_nodes": [[["block5b_add", 0, 0, {}]]]}, {"class_name": "BatchNormalization", "config": {"name": "block5c_expand_bn", "trainable": true, "dtype": "float32", "axis": [3], "momentum": 0.99, "epsilon": 0.001, "center": true, "scale": true, "beta_initializer": {"class_name": "Zeros", "config": {}}, "gamma_initializer": {"class_name": "Ones", "config": {}}, "moving_mean_initializer": {"class_name": "Zeros", "config": {}}, "moving_variance_initializer": {"class_name": "Ones", "config": {}}, "beta_regularizer": null, "gamma_regularizer": null, "beta_constraint": null, "gamma_constraint": null}, "name": "block5c_expand_bn", "inbound_nodes": [[["block5c_expand_conv", 0, 0, {}]]]}, {"class_name": "Activation", "config": {"name": "block5c_expand_activation", "trainable": true, "dtype": "float32", "activation": "swish"}, "name": "block5c_expand_activation", "inbound_nodes": [[["block5c_expand_bn", 0, 0, {}]]]}, {"class_name": "DepthwiseConv2D", "config": {"name": "block5c_dwconv", "trainable": true, "dtype": "float32", "kernel_size": [5, 5], "strides": [1, 1], "padding": "same", "data_format": "channels_last", "dilation_rate": [1, 1], "groups": 1, "activation": "linear", "use_bias": false, "bias_initializer": {"class_name": "Zeros", "config": {}}, "bias_regularizer": null, "activity_regularizer": null, "bias_constraint": null, "depth_multiplier": 1, "depthwise_initializer": {"class_name": "VarianceScaling", "config": {"scale": 2.0, "mode": "fan_out", "distribution": "truncated_normal", "seed": null}}, "depthwise_regularizer": null, "depthwise_constraint": null}, "name": "block5c_dwconv", "inbound_nodes": [[["block5c_expand_activation", 0, 0, {}]]]}, {"class_name": "BatchNormalization", "config": {"name": "block5c_bn", "trainable": true, "dtype": "float32", "axis": [3], "momentum": 0.99, "epsilon": 0.001, "center": true, "scale": true, "beta_initializer": {"class_name": "Zeros", "config": {}}, "gamma_initializer": {"class_name": "Ones", "config": {}}, "moving_mean_initializer": {"class_name": "Zeros", "config": {}}, "moving_variance_initializer": {"class_name": "Ones", "config": {}}, "beta_regularizer": null, "gamma_regularizer": null, "beta_constraint": null, "gamma_constraint": null}, "name": "block5c_bn", "inbound_nodes": [[["block5c_dwconv", 0, 0, {}]]]}, {"class_name": "Activation", "config": {"name": "block5c_activation", "trainable": true, "dtype": "float32", "activation": "swish"}, "name": "block5c_activation", "inbound_nodes": [[["block5c_bn", 0, 0, {}]]]}, {"class_name": "GlobalAveragePooling2D", "config": {"name": "block5c_se_squeeze", "trainable": true, "dtype": "float32", "data_format": "channels_last"}, "name": "block5c_se_squeeze", "inbound_nodes": [[["block5c_activation", 0, 0, {}]]]}, {"class_name": "Reshape", "config": {"name": "block5c_se_reshape", "trainable": true, "dtype": "float32", "target_shape": [1, 1, 672]}, "name": "block5c_se_reshape", "inbound_nodes": [[["block5c_se_squeeze", 0, 0, {}]]]}, {"class_name": "Conv2D", "config": {"name": "block5c_se_reduce", "trainable": true, "dtype": "float32", "filters": 28, "kernel_size": [1, 1], "strides": [1, 1], "padding": "same", "data_format": "channels_last", "dilation_rate": [1, 1], "groups": 1, "activation": "swish", "use_bias": true, "kernel_initializer": {"class_name": "VarianceScaling", "config": {"scale": 2.0, "mode": "fan_out", "distribution": "truncated_normal", "seed": null}}, "bias_initializer": {"class_name": "Zeros", "config": {}}, "kernel_regularizer": null, "bias_regularizer": null, "activity_regularizer": null, "kernel_constraint": null, "bias_constraint": null}, "name": "block5c_se_reduce", "inbound_nodes": [[["block5c_se_reshape", 0, 0, {}]]]}, {"class_name": "Conv2D", "config": {"name": "block5c_se_expand", "trainable": true, "dtype": "float32", "filters": 672, "kernel_size": [1, 1], "strides": [1, 1], "padding": "same", "data_format": "channels_last", "dilation_rate": [1, 1], "groups": 1, "activation": "sigmoid", "use_bias": true, "kernel_initializer": {"class_name": "VarianceScaling", "config": {"scale": 2.0, "mode": "fan_out", "distribution": "truncated_normal", "seed": null}}, "bias_initializer": {"class_name": "Zeros", "config": {}}, "kernel_regularizer": null, "bias_regularizer": null, "activity_regularizer": null, "kernel_constraint": null, "bias_constraint": null}, "name": "block5c_se_expand", "inbound_nodes": [[["block5c_se_reduce", 0, 0, {}]]]}, {"class_name": "Multiply", "config": {"name": "block5c_se_excite", "trainable": true, "dtype": "float32"}, "name": "block5c_se_excite", "inbound_nodes": [[["block5c_activation", 0, 0, {}], ["block5c_se_expand", 0, 0, {}]]]}, {"class_name": "Conv2D", "config": {"name": "block5c_project_conv", "trainable": true, "dtype": "float32", "filters": 112, "kernel_size": [1, 1], "strides": [1, 1], "padding": "same", "data_format": "channels_last", "dilation_rate": [1, 1], "groups": 1, "activation": "linear", "use_bias": false, "kernel_initializer": {"class_name": "VarianceScaling", "config": {"scale": 2.0, "mode": "fan_out", "distribution": "truncated_normal", "seed": null}}, "bias_initializer": {"class_name": "Zeros", "config": {}}, "kernel_regularizer": null, "bias_regularizer": null, "activity_regularizer": null, "kernel_constraint": null, "bias_constraint": null}, "name": "block5c_project_conv", "inbound_nodes": [[["block5c_se_excite", 0, 0, {}]]]}, {"class_name": "BatchNormalization", "config": {"name": "block5c_project_bn", "trainable": true, "dtype": "float32", "axis": [3], "momentum": 0.99, "epsilon": 0.001, "center": true, "scale": true, "beta_initializer": {"class_name": "Zeros", "config": {}}, "gamma_initializer": {"class_name": "Ones", "config": {}}, "moving_mean_initializer": {"class_name": "Zeros", "config": {}}, "moving_variance_initializer": {"class_name": "Ones", "config": {}}, "beta_regularizer": null, "gamma_regularizer": null, "beta_constraint": null, "gamma_constraint": null}, "name": "block5c_project_bn", "inbound_nodes": [[["block5c_project_conv", 0, 0, {}]]]}, {"class_name": "Dropout", "config": {"name": "block5c_drop", "trainable": true, "dtype": "float32", "rate": 0.125, "noise_shape": [null, 1, 1, 1], "seed": null}, "name": "block5c_drop", "inbound_nodes": [[["block5c_project_bn", 0, 0, {}]]]}, {"class_name": "Add", "config": {"name": "block5c_add", "trainable": true, "dtype": "float32"}, "name": "block5c_add", "inbound_nodes": [[["block5c_drop", 0, 0, {}], ["block5b_add", 0, 0, {}]]]}], "input_layers": [["input_4", 0, 0]], "output_layers": [["block5c_add", 0, 0]]}}}, "name": "time_distributed_6", "inbound_nodes": [[["main_in", 0, 0, {}]]]}, {"class_name": "ConvLSTM2D", "config": {"name": "conv_lst_m2d_3", "trainable": true, "dtype": "float32", "return_sequences": true, "return_state": false, "go_backwards": false, "stateful": true, "unroll": false, "time_major": false, "filters": 256, "kernel_size": [3, 3], "strides": [1, 1], "padding": "valid", "data_format": "channels_last", "dilation_rate": [1, 1], "activation": "tanh", "recurrent_activation": "hard_sigmoid", "use_bias": true, "kernel_initializer": {"class_name": "GlorotUniform", "config": {"seed": null}}, "recurrent_initializer": {"class_name": "Orthogonal", "config": {"gain": 1.0, "seed": null}}, "bias_initializer": {"class_name": "Zeros", "config": {}}, "unit_forget_bias": true, "kernel_regularizer": null, "recurrent_regularizer": null, "bias_regularizer": null, "activity_regularizer": null, "kernel_constraint": null, "recurrent_constraint": null, "bias_constraint": null, "dropout": 0.5, "recurrent_dropout": 0.5}, "name": "conv_lst_m2d_3", "inbound_nodes": [[["time_distributed_6", 0, 0, {}]]]}, {"class_name": "TimeDistributed", "config": {"name": "time_distributed_7", "trainable": true, "dtype": "float32", "layer": {"class_name": "Flatten", "config": {"name": "flatten_3", "trainable": true, "dtype": "float32", "data_format": "channels_last"}}}, "name": "time_distributed_7", "inbound_nodes": [[["conv_lst_m2d_3", 0, 0, {}]]]}, {"class_name": "Dense", "config": {"name": "dense_15", "trainable": true, "dtype": "float32", "units": 11, "activation": "sigmoid", "use_bias": true, "kernel_initializer": {"class_name": "GlorotUniform", "config": {"seed": null}}, "bias_initializer": {"class_name": "Zeros", "config": {}}, "kernel_regularizer": null, "bias_regularizer": null, "activity_regularizer": null, "kernel_constraint": null, "bias_constraint": null}, "name": "dense_15", "inbound_nodes": [[["time_distributed_7", 0, 0, {}]]]}, {"class_name": "Dense", "config": {"name": "dense_16", "trainable": true, "dtype": "float32", "units": 2, "activation": "sigmoid", "use_bias": true, "kernel_initializer": {"class_name": "GlorotUniform", "config": {"seed": null}}, "bias_initializer": {"class_name": "Zeros", "config": {}}, "kernel_regularizer": null, "bias_regularizer": null, "activity_regularizer": null, "kernel_constraint": null, "bias_constraint": null}, "name": "dense_16", "inbound_nodes": [[["time_distributed_7", 0, 0, {}]]]}, {"class_name": "Dense", "config": {"name": "dense_17", "trainable": true, "dtype": "float32", "units": 23, "activation": "softmax", "use_bias": true, "kernel_initializer": {"class_name": "GlorotUniform", "config": {"seed": null}}, "bias_initializer": {"class_name": "Zeros", "config": {}}, "kernel_regularizer": null, "bias_regularizer": null, "activity_regularizer": null, "kernel_constraint": null, "bias_constraint": null}, "name": "dense_17", "inbound_nodes": [[["time_distributed_7", 0, 0, {}]]]}, {"class_name": "Dense", "config": {"name": "dense_18", "trainable": true, "dtype": "float32", "units": 15, "activation": "softmax", "use_bias": true, "kernel_initializer": {"class_name": "GlorotUniform", "config": {"seed": null}}, "bias_initializer": {"class_name": "Zeros", "config": {}}, "kernel_regularizer": null, "bias_regularizer": null, "activity_regularizer": null, "kernel_constraint": null, "bias_constraint": null}, "name": "dense_18", "inbound_nodes": [[["time_distributed_7", 0, 0, {}]]]}, {"class_name": "Dense", "config": {"name": "dense_19", "trainable": true, "dtype": "float32", "units": 1, "activation": "linear", "use_bias": true, "kernel_initializer": {"class_name": "GlorotUniform", "config": {"seed": null}}, "bias_initializer": {"class_name": "Zeros", "config": {}}, "kernel_regularizer": null, "bias_regularizer": null, "activity_regularizer": null, "kernel_constraint": null, "bias_constraint": null}, "name": "dense_19", "inbound_nodes": [[["time_distributed_7", 0, 0, {}]]]}, {"class_name": "Concatenate", "config": {"name": "concatenate_3", "trainable": true, "dtype": "float32", "axis": -1}, "name": "concatenate_3", "inbound_nodes": [[["dense_15", 0, 0, {}], ["dense_16", 0, 0, {}], ["dense_17", 0, 0, {}], ["dense_18", 0, 0, {}], ["dense_19", 0, 0, {}]]]}], "input_layers": [["main_in", 0, 0]], "output_layers": [["concatenate_3", 0, 0]]}, "keras_version": "2.4.0", "backend": "tensorflow"}